whatsapp_profile/optimization_guide_model_store/20/E6DC4029A1E4B4C1/55C859AAE228C8F4/model.tflite (tflite, 64852 bytes, 5 tensors)

arith.constant f4 [1, 64]
00000000: ee94 ad3e d553 95bd 48db 73be 8121 c2bd
00000010: 59a5 863e a22d 103e b392 99be b6ea 083e
00000020: 89c3 403d ec6b b63e 51fb e0bd 622f 9cbe
00000030: 4ed4 ac3e 7370 bc3e 1565 ff3d 07f8 f7bd
00000040: fbe2 7ebe 6bc2 84be d8b5 87be 1bc8 35be
00000050: b1b6 6f3e 7b9d 1ebe c789 92be 0e36 083e
00000060: 3782 91be dccc 14be 900b 923e 243e b1bc
00000070: ff0a 10be b657 c03b f390 31be dd77 473e
00000080: 4ad8 d2bd 23d4 a7be b900 843e d6b5 773e
00000090: 719c bb3d d6b8 a03e 8f20 903e baa5 623e
000000a0: 059e bc3c d24e 1fbe 631e 203e afda 30be
000000b0: e1aa 67be 4694 f2bd 6296 78be bb20 f43d
000000c0: 6f6a 313e 768b 95bd a286 73be 9774 9d3e
000000d0: 895f e93b a49d 26be fd07 0d3d 31b4 9b3e
000000e0: 28c0 903e 7811 373d 5d4a 8f3e 3c59 e63d
000000f0: 804d 31be 1094 69be 43a6 463e ff83 243e
0.33902687 -0.0729138 -0.23814118 -0.094790466 0.26298025 0.14079908 -0.29994735 0.13370785
0.047061477 0.35629213 -0.10985435 -0.305049 0.33755726 0.36804542 0.12470452 -0.12107854
-0.24891274 -0.2592958 -0.26505923 -0.17752115 0.23409535 -0.15489762 -0.2862074 0.1330187
-0.2841966 -0.14531273 0.28524446 -0.021636076 -0.14066695 0.005869831 -0.1734045 0.19479318
-0.1029516 -0.32779035 0.257818 0.24190459 0.09160698 0.3139102 0.2814984 0.22133532
0.023024568 -0.15557411 0.15636592 -0.17270921 -0.22623779 -0.11844687 -0.24276116 0.11920305
0.17325757 -0.07301991 -0.23781827 0.30753013 0.0071219844 -0.16271073 0.034431446 0.30410913
0.28271604 0.044694394 0.27986422 0.11247489 -0.1731472 -0.22810388 0.19399361 0.16065978

arith.constant1 f4 [64, 128]
00000000: 71fe 3b3e 5c45 423e c689 88bc 8d14 1abe
00000010: 80da 263e 77d2 1c3e 442e d53d 327a fb3d
00000020: 61df 7fbe f790 963c e27c 2dbe ea63 93bd
00000030: 8dce 82bd fbb1 2cbd bb86 1e3e 87c2 733c
00000040: 8a88 bd3d b9bd 3a3e b4f3 a0bd 838f 6ebd
00000050: 76f0 ae3d 4d3c 42bd 12f0 1fbd 8d29 46bd
00000060: 92e2 8bbd 5391 053e d61d 403e 8d63 52be
00000070: 9885 04be e03b 7d3c f7ea 103e 5c2c 69bc
00000080: 0ea8 633b ac5d 9a3a 4385 efbc 961b fa3d
00000090: e2fa 2f3d 12c6 223e 76da 32bd 7c60 c43c
000000a0: a54b 20be fd8f 21be 27dd 8ebd ec1f 2d3e
000000b0: b4e8 31be 4d9d aabd ac90 e7bd 9976 173e
000000c0: e5fc 423e 857f fa3c a006 c3bd e333 7c3d
000000d0: 71d8 5d3e f6ee 7e3d aff7 abbd ca24 2bbe
000000e0: 2466 b9bd 5bdb 17be 9545 613e 1820 213e
000000f0: 2bed 10be 5f0a 3cbb 2879 cd3c fe8c 86bd
00000100: a319 c6bd afa4 063e 6ba0 5b3e 5ab7 083d
00000110: 6f62 2d3e 96fb a7bb cd31 90bd 81b2 d23c
00000120: 8a51 25be a7d3 5d3e f73f 2ebd d21a e5bb
00000130: fa79 5b3d bd55 d5bd 3f8b 06be d3f4 973d
00000140: 736a 3d3d 0aee 0dbc 6565 e03d 8444 39be
00000150: 0ec6 ac3c b719 0ebd ae9d b43c 94c0 d43d
00000160: bb33 3cbe 1145 88bb 7056 57be be5b e93d
00000170: 6b5a 5b3d a217 68be 2d50 81bd 5a69 583c
00000180: 6bfe a53d dbc9 9b3c ecfc 1d3e 7024 983d
00000190: fa0b 09be 64b0 9bbd 3de9 67bd 752f 42bd
000001a0: 536e 01be bcf3 a1bd cd2f 9f3d eb22 cfbd
000001b0: 9fad 45be 9c6e 67bd 55c8 30be 2013 093e
000001c0: 355c 12bc e501 483d 3275 d63d f7ab b4bb
000001d0: e57e 443d 4f72 533e 0351 5cbc 174f 46be
000001e0: 6c21 01be 7ce5 493e f7c2 463e d36c 153d
000001f0: c04b db3c 741c 713d bcd7 e5bd cd29 08be
00000200: 5731 33be 2d84 cbba cf7a 3ebd b95a bfbd
00000210: bd42 84bd 0d93 893d d90e 0cbe 54fa 1cbe
00000220: f971 18be 0db5 afbd 8664 053e 98fb 0cbe
00000230: 62f7 26be 7830 8a3d 1f21 ffbd 8ccc 543d
00000240: 8e2a afbd 273d 1ebe 5840 613d 41e6 2bbd
00000250: 9123 073e 8854 283e a9aa 0fbe b3c0 99bd
00000260: da93 243e 258b 203d 83d4 f8bd 5007 823d
00000270: f4a5 2c3e 00a8 26be 6ebe a63d 7622 183e
00000280: 628b 493d b9a6 79bd 7da5 e63d b231 83bd
00000290: c118 493d d2d3 a23d bbd4 403e 386f edbd
000002a0: 40d2 1b3b e408 123e 8ff1 ed3d b69e 2f3e
000002b0: 16b0 a33d a1c3 40bd 1e40 8e3d 78f4 083d
000002c0: 038d 19be 36b5 d5bd 3658 0cbe 5af8 ddbd
000002d0: 09bf 13be b1d6 cd3c 675b ab3d d631 003e
000002e0: 35fe 213e 7f2d 1dbe fb59 e5bd aeb3 f33d
000002f0: 2090 c6bd 4883 fabd 6686 ad3c 01ca f0bd
00000300: 0074 943c 1541 b7bd e3a3 8fbd a201 65bc
00000310: c7cc 1b3e f7a3 e1bc 6fd9 b6bb 527d 8cbd
00000320: 1353 02be 56c4 263e d73f aa3d 8bbd fbbc
00000330: 78af 743d 86ad cebd 2010 c8bc 47b9 293e
00000340: 3c9c babd 37b4 8f3d 39b4 3d3d 1efb 05be
00000350: 1c8f ba3c ff1a 383d c97d c8bb 80a0 67bd
00000360: f9d1 0c3e e3b2 82bb fbe3 00be bb99 19be
00000370: dab6 363e 6c37 eb3c 3a3d 7d3d 000f ecbd
00000380: 8359 593d b3ae e5bd 0c26 17be dae6 f93c
00000390: c1ba 95bc 4cec 843d 4aae a2bc c3af ecbd
000003a0: 0b34 d53d 56de efbd df21 443c 92fe 0fbe
000003b0: eacb 0dbe d0a1 5ebc 7c67 f73d 62e6 4e3d
000003c0: 7f39 22bd fdbf 07be d61a b3bd b32f ce3d
000003d0: 2447 c43d 8a6b d9bc cf52 1c3e 8638 f83d
000003e0: 1a0d 06be 658f 963b e883 e03c a584 c83d
000003f0: db7b a03d 79f4 3c3d a2f7 2ebe 91b6 b3bd
0.1835878 0.18971771 -0.016667258 -0.15046902 0.16294289 0.15314661 0.10409215 0.12279166
-0.24987556 0.018379671 -0.1694217 -0.071967915 -0.06387053 -0.042161923 0.15481083 0.014877922
0.092545584 0.18236436 -0.07858983 -0.058242332 0.08541958 -0.04742079 -0.03904731 -0.04837947
-0.06830324 0.13043718 0.18761382 -0.20545788 -0.12941587 0.01545617 0.14152132 -0.0142317675
0.003473762 0.0011777184 -0.029238349 0.12212293 0.04296387 0.1589587 -0.04366537 0.023971789
-0.15653856 -0.15777583 -0.06975775 0.16906708 -0.17373925 -0.08330784 -0.11306891 0.14791335
0.19041784 0.030578384 -0.09522748 0.06157292 0.21664597 0.06223961 -0.08396851 -0.16713253
-0.09052685 -0.14829771 0.219992 0.15734899 -0.14152972 -0.0028692705 0.025082186 -0.06569861
-0.096728586 0.1314876 0.21447913 0.033377983 0.1693208 -0.005126427 -0.07040749 0.025719883
-0.16144386 0.2166277 -0.04254147 -0.0069917226 0.053583123 -0.10416744 -0.13139056 0.074197434
0.046244096 -0.00866271 0.109568395 -0.18092543 0.021090534 -0.034692492 0.022047844 0.10388294
-0.18379109 -0.004158624 -0.21029067 0.113944516 0.053553026 -0.22665265 -0.063141204 0.0132087115
0.08105167 0.01901715 0.15428513 0.07428825 -0.13383475 -0.07602003 -0.056618918 -0.04740854
-0.12639742 -0.07907817 0.07772789 -0.10114082 -0.19304512 -0.05650197 -0.1726392 0.13386202
-0.008933117 0.04882993 0.10471572 -0.005513664 0.04797258 0.20649074 -0.013447049 -0.19366108
-0.12610406 0.19716448 0.1941031 0.036480736 0.026769519 0.058865026 -0.11222789 -0.13297196
-0.1749929 -0.0015527062 -0.04650384 -0.09343476 -0.06458042 0.06717501 -0.13677539 -0.15329868
-0.14887227 -0.085794546 0.13026628 -0.1376785 -0.16305307 0.06747526 -0.12457489 0.051952884
-0.085530385 -0.15453015 0.054993004 -0.041967634 0.13197161 0.16438496 -0.14029945 -0.075074576
0.16072026 0.0391952 -0.121499084 0.06349051 0.16860181 -0.16275024 0.0814179 0.14856896
0.04920519 -0.060950015 0.11262033 -0.06405963 0.049095873 0.07950558 0.1883115 -0.11593479
0.0023776442 0.14261204 0.11618339 0.17150387 0.0799257 -0.047061566 0.06945823 0.03343627
-0.14995198 -0.10434954 -0.13705525 -0.10838385 -0.14428343 0.025126787 0.08367043 0.12519011
0.15819629 -0.15349387 -0.11198803 0.118995056 -0.096954584 -0.12232071 0.02118225 -0.11757279
0.01812172 -0.0894796 -0.07013681 -0.01397744 0.15214835 -0.027544005 -0.0055801193 -0.068598405
-0.12727003 0.16285834 0.08312958 -0.03073003 0.059737653 -0.10091691 -0.024421751 0.16574584
-0.091118306 0.07016795 0.04631445 -0.13084075 0.022773318 0.04494762 -0.0061185104 -0.05654955
0.13751973 -0.00398861 -0.12586968 -0.1500005 0.1784319 0.02871295 0.06182597 -0.115262985
0.05306388 -0.11214962 -0.14760607 0.030505586 -0.018277528 0.064903826 -0.019858498 -0.115569614
0.10410317 -0.11712329 0.011970966 -0.14061955 -0.13847318 -0.013588384 0.12080285 0.05051268
-0.039605614 -0.13256831 -0.08745353 0.10067692 0.095838815 -0.026540536 0.15265964 0.12120156
-0.13090935 0.0045947307 0.027406648 0.09790925 0.078361236 0.046131585 -0.17086652 -0.08775056

arith.constant2 f4 [128, 12]
00000000: 69fd 843d a04c 923c 01da babd b79e c1bd
00000010: d8db 1bbe 7df9 3d3d 83c9 5fbc 1426 12be
00000020: 89a1 403e 6735 bc3d 142b 34be 2540 33bd
00000030: 75b2 3bbd 04a0 c63d ce9a 5dbe 5a7b 2abe
00000040: dc0f 11bd 5b8d 46bd c265 623e 440c 5dbc
00000050: d990 ab3a 5101 ae3c 192d 903d f423 533d
00000060: 9fe9 c7bd 5e5c ce3d 1853 ee3d f15e e1bd
00000070: 6f1e b6bd 19c4 653d 34a0 903d 708b 2c3e
00000080: 1e8d 3abe c9a1 f4bc 5cb0 f73c cb49 783e
00000090: d3d4 26bd 1135 1ebd 97e1 b1bd f84c 1abe
000000a0: 656e a63d 2767 dc3d 9675 bb3d 8233 073e
000000b0: 4b97 8bbe 830a df3d 11ae 443d acc0 d4bc
000000c0: 7f04 87bd ad57 b63d 9377 56bd 581b 0b3e
000000d0: 624d bd3d 8674 80be 26c1 b63c 6728 11be
000000e0: 5adf 323d b070 8a3d a733 f03c b731 d3bc
000000f0: 96cd 263e 02e4 d9bd 2847 38bd ffa0 fabd
00000100: 0253 2fbe f1ad f6bd 602c 2dbe 0a79 82bd
00000110: 7185 5cbd fc9a cebd c57c aabd 47a1 313c
00000120: 15e4 d2bd cb0d cb3b 5481 163d f0c4 2cbe
00000130: 9301 1fbd 023b eabc 6a17 233e 8151 2a3e
00000140: dc48 383e a8ea 393c d731 15be 2db0 4b3e
00000150: 5b22 9f3c b3ee 07be ba94 58bc 834c a23c
00000160: 8b5f 183e 88f6 8a3b b008 573e ba7e 42be
00000170: 0bc5 85bd c57b edbc f7b0 1a3e d977 043e
00000180: 306f fd3d d9e8 763d d191 6c3d e5f7 30be
00000190: bfc6 14bc 7650 573e 85d5 803e b950 2ebe
000001a0: 82a2 833d 30a5 a43d 9707 a33d d633 25be
000001b0: 3553 4cbd f531 803d defe 8ebd 554b 08bc
000001c0: 2667 fdbb c371 b0bd 1585 ef3d bb70 e53d
000001d0: f55e 173e 2f5a 043e 9f5d 9e3d 40b2 09be
000001e0: 69d4 d33d d171 6dbd 9834 d83c b7b4 7d3c
000001f0: 1fa5 1ebd 4688 43bd 8573 f8ba 4e26 19bd
00000200: a2af 12be a752 5c3e eb8a 19bc a1d6 3e3d
00000210: 9438 58be 784a 0f3e 19c4 6ebb 16c6 a6bd
00000220: 925f 6e3e b46e 11be af23 ca3d 5406 e83d
00000230: 2f2f bd3d 8bbf babd ea40 6a3d 3dcc e33b
00000240: ca10 f3bd afb3 0a3d 2779 26bc 0a42 053e
00000250: 0991 16be 26a0 a6bd a2f6 e6bd 0e33 663d
00000260: f884 473a c6b2 a8ba f996 2b3e 1452 133c
00000270: 95c5 393e 0d55 0f3e e147 02be 7291 de3d
00000280: ebe0 c7bc 98bb 03be c54a d13d 9c96 7d3d
00000290: 2153 7d3e cb40 4cbe da20 003e 2288 b23d
000002a0: 2346 c63d 2877 51be 8389 0dbe 25d5 27be
000002b0: 5218 013d 80af ae3c b5b1 343e d1f2 3cbe
000002c0: b86e 343e 0a18 bfbd 3434 c2bc 03c4 e0bd
000002d0: 3ce9 46be da15 17be 257c 023d 3924 a6bd
000002e0: 37a5 103e 5104 fdbd bfe8 6cbe 0bb0 bbbd
000002f0: a1a4 2a3d 6c94 603e 490f e9bd 1d73 2b3e
00000300: e064 77bd 3ae4 4e3d adb0 393d e2ae f03d
00000310: 1a36 17be 4bf4 06bd 650f ae3d d01c d1bd
00000320: 5271 1e3e 28e1 b3bd e534 7c3e 429d 71be
00000330: a6c0 9e3d 8089 053e 65a3 1bbe dfcf 0c3e
00000340: 0faf 363c 8245 343d f7e3 ab3d e4bb 33bd
00000350: eb3b b23c 84d5 efbd 59c9 143e 0f47 2e3e
00000360: 8592 303e a8a2 a5bc 0e5c 23be 3e47 313e
00000370: 0766 833c c9d4 013e e426 b4bd 58ba 263d
00000380: c3c1 ddbc a3d4 ccbc 81ed ca3c 2bb9 ed3d
00000390: 843e 533e dc36 983c 58ad 113d 2b04 9bbd
000003a0: 11f9 0a3e 4121 5f3e 4e54 473e 86b2 40bd
000003b0: 7978 9cbc 70b2 90bc f4dc 703c 0fce e03c
000003c0: 589a 23be 938c 4bbe eff1 f7bd 3871 cb3c
000003d0: 9ee7 063c ffc6 4e3e 55b6 8fbd c325 c5ba
000003e0: e863 12bd 5105 d43d afc4 f73d fb73 5cbe
000003f0: 7796 d83d c024 25be 4d9f 3bbe 1aa8 8bbc
0.06493647 0.017858803 -0.09123612 -0.094541006 -0.15220582 0.04638051 -0.013658884 -0.14272338
0.18811621 0.09189873 -0.17594558 -0.043762345 -0.045824487 0.09698489 -0.21641085 -0.16648617
-0.035415515 -0.04847465 0.2210913 -0.013491694 0.0013089433 0.021240862 0.07039852 0.05154796
-0.097613566 0.100762114 0.116369426 -0.11004437 -0.088925235 0.056095216 0.07061806 0.16850066
-0.18217894 -0.029862301 0.030235462 0.242469 -0.04073031 -0.038624827 -0.08685606 -0.15068424
0.08126525 0.10761862 0.09153287 0.13203242 -0.27263865 0.10890677 0.048017565 -0.02597078
-0.065926544 0.089034416 -0.05236013 0.1358465 0.09243275 -0.250889 0.022308897 -0.14175569
0.043670036 0.06759775 0.029321505 -0.025780542 0.16289362 -0.10639192 -0.044989735 -0.12237739
-0.17121509 -0.120448954 -0.16911459 -0.063707426 -0.053838197 -0.10088155 -0.08324579 0.010841674
-0.102974094 0.0061967126 0.03674443 -0.16872 -0.03881986 -0.02859259 0.159269 0.16632654
0.17996544 0.01134745 -0.14569794 0.19891424 0.019425562 -0.1327465 -0.013219053 0.019811874
0.14880197 0.0042408146 0.20999408 -0.18993655 -0.065317236 -0.028989682 0.15106569 0.12936343
0.12374723 0.060280655 0.05775625 -0.17282064 -0.009080588 0.21026787 0.25162902 -0.17022981
0.0642748 0.080393195 0.07960432 -0.16133055 -0.04988404 0.062595285 -0.06982206 -0.008318742
-0.0077332435 -0.08615448 0.11695305 0.11203142 0.14782317 0.12925027 0.077327006 -0.13446903
0.103432484 -0.057969872 0.026392266 0.01548498 -0.03873169 -0.047737382 -0.0018955326 -0.037390046
-0.14324811 0.21515904 -0.0093714995 0.046591405 -0.21115333 0.13993251 -0.0036432801 -0.08143251
0.23278645 -0.14202386 0.09870087 0.11329332 0.09237515 -0.09118565 0.057190813 0.0069518373
-0.11868437 0.033862766 -0.010160721 0.13013473 -0.14703764 -0.08136015 -0.1127751 0.056201033
0.00076110614 -0.0012870661 0.1675681 0.008991737 0.18141778 0.13997288 -0.12722732 0.10867585
-0.024399241 -0.1286453 0.10219339 0.06191121 0.24738742 -0.19946592 0.12512532 0.087173715
0.09681346 -0.20455611 -0.13821988 -0.16389902 0.031517334 0.02132392 0.17645915 -0.18452002
0.17620361 -0.09330757 -0.023706533 -0.10974886 -0.1942491 -0.1475443 0.031856675 -0.08112378
0.14125524 -0.12354339 -0.2313566 -0.09164437 0.04166091 0.21931618 -0.113798685 0.16743131
-0.060398936 0.050510623 0.045334507 0.11752106 -0.14766732 -0.03294782 0.0849903 -0.10210574
0.15472916 -0.087831795 0.24629553 -0.23595145 0.077515885 0.13040733 -0.15199049 0.13751172
0.011150136 0.0440116 0.0839309 -0.04388036 0.021757087 -0.11710647 0.14529933 0.17019294
0.17243393 -0.020219162 -0.15953085 0.17312333 0.016039861 0.12678827 -0.0879648 0.040705055
-0.027069932 -0.025003737 0.024771454 0.116075836 0.20629317 0.018580846 0.035565704 -0.07569154
0.13571574 0.21790029 0.19465753 -0.047045253 -0.019100415 -0.01766321 0.014701117 0.027442006
-0.15976846 -0.19877844 -0.12106692 0.02483426 0.008233933 0.20193098 -0.07017199 -0.0015041161
-0.03573981 0.103525765 0.12098061 -0.21528618 0.10575574 -0.161273 -0.18322487 -0.01704793

arith.constant29 f4 [64]
00000000: 3aec b2bd 11b8 f6bc 5a68 04bd 6d9e 31bd
00000010: 75a3 99bd debf af3c 6cd0 e13c 3d9e 793c
00000020: 0a61 953b 317d b2bc 18f9 51bd cfaa cbbd
00000030: 485f 443d a23d 873d a414 68bd 4ca5 a3bc
00000040: 7c66 61bd b1ef 8bbb 03cb 02bd 4ffb a43b
00000050: b6b9 423c fbae dd3a 2a48 0cbd af8c 823d
00000060: c710 01bd ef9b 33bc b706 acba aaef 79bc
00000070: ec87 553c c62a 54bc 2514 ebbc a9f0 bdbb
00000080: 4de2 3cbc 08b6 adbd e165 a1bb 74c5 483d
00000090: 236c 1b3c 0261 553d a1c6 6b3d a0c9 c1bd
000000a0: 23b8 7abc ef6a 8f3c b9d8 bd3c 8ae1 b6bc
000000b0: 5154 d2b7 2e65 a8bc 4859 26bd 5933 07bd
000000c0: 322a 593c 86a9 28bd 9f77 913c 6313 663d
000000d0: 3490 58bc 5c54 2bbd 48a9 ba3b 4ccc 803c
000000e0: 7cb7 83bd 86c2 663c f4a6 453d 726f 0dbc
000000f0: 8369 623b a837 c33b 7b1d dbbc 8919 043d
-0.08736463 -0.030117067 -0.03232608 -0.043363977 -0.0750188 0.021453794 0.027565204 0.015235481
0.004558687 -0.021788212 -0.051262945 -0.099446885 0.04794243 0.066035524 -0.05666031 -0.01997628
-0.055029377 -0.004270517 -0.03193189 0.005034841 0.011885097 0.001691311 -0.03424851 0.063744895
-0.03151014 -0.01096247 -0.001312456 -0.015254894 0.013032895 -0.012949651 -0.02869613 -0.005796511
-0.011528564 -0.08481985 -0.004925475 0.04901643 0.009486231 0.052094467 0.057562474 -0.09462285
-0.015302691 0.017507045 0.02317463 -0.022324342 -2.5073214e-05 -0.020556059 -0.04061249 -0.033007953
0.013254689 -0.041177295 0.017757235 0.056170832 -0.013217974 -0.0418285 0.0056964494 0.015722416
-0.06431481 0.014084464 0.048254922 -0.008632528 0.0034547753 0.0059575625 -0.026747456 0.032250915

arith.constant30 f4 [128]
00000000: 2cb8 3fbd 320a eabc 3d65 fcbc b162 d3bd
00000010: d330 9fbc 18da 5cbd 9118 e73b f3b5 2c3d
00000020: 6fe9 b13d f641 fdbc 6acf 693b be70 10bd
00000030: b178 00bd 3be5 cdbc 0082 27bc 4b87 14bd
00000040: 29fa 043c ee69 763d 8f97 15bd eeab 6a3c
00000050: 65e7 013c 6bb8 afbc cb2d 8fbc cd82 3ebc
00000060: b9c8 5b3d de9a a5bb dd4c 01bd 67ca 933d
00000070: 582b 86bd 1259 b63b 9877 643b 1961 febb
00000080: 7677 023d fbdf f7bc f8bd 60bb 1fe7 71bc
00000090: cb9a 46bd 50a2 dc3c c7bc 21bd 2d36 50bc
000000a0: a024 e23c d223 813d 0d90 e83c 3c6a 03bd
000000b0: addd c6bc 0f97 113c 1844 89bc e856 0abd
000000c0: 12a0 01be b6ae 77bc 1c28 0ebd f7a8 0abc
000000d0: ceff d3bd 08ab 843d bde9 79bd 5cfe 13bd
000000e0: b686 d73c 04f5 40bd 2967 edbd d00c 14bd
000000f0: b931 e5bc 6f0f b9bd 1fd8 923d e0f7 e1bc
00000100: fbe3 2cbd 4989 b53d 8d5c d23b 7cb4 8b3d
00000110: 3f16 11bd 2d84 0fbd c2a8 023d 1e1f 9abd
00000120: d562 ad3d ff1b a5bd 0f22 82bd aae2 003d
00000130: 2726 5bbc 5d70 05bd e038 78bd 125c 9ebb
00000140: 83ef 9ebc 3c5f b53b c196 83bd 26dd c03c
00000150: 0d43 b53c 413d 38bc 5391 8abd 39e8 c2bd
00000160: 1c75 83bc 4b05 733b 178d 823d 9b31 013c
00000170: 6129 7bbd 4d90 a63d 21d7 d9bc e166 933c
00000180: 3727 04be 73c0 0fbd fb50 37bd fddf 93bd
00000190: 7baa 303d e129 13bc be4e 413d f339 42bc
000001a0: 5201 ab3c 0ac5 c7bd 2e61 d63c 00d1 66bc
000001b0: f2a0 853d 74cd bfbb c16c 87bc 184b f33b
000001c0: 8e04 583c bbb3 f6bb 1a95 52bd f453 a7bc
000001d0: 474b 07bd d6bc 8bbd d84c 563c 7ba7 5a3d
000001e0: c9b6 0fbd 3cc3 e7bc 81bd 8abd e7ea 413c
000001f0: 86c5 203d c5b3 c7bd 95a9 f0bb 5b02 5a3b
-0.0468065 -0.028569315 -0.030809993 -0.10321558 -0.01943246 -0.053918928 0.007052489 0.042165708
0.08687102 -0.030915242 0.0035676607 -0.03526377 -0.0313651 -0.02513372 -0.0102238655 -0.036261838
0.008116283 0.060159616 -0.03652149 0.014323218 0.007928704 -0.021450242 -0.01747789 -0.011627865
0.05365822 -0.005053862 -0.031567443 0.072163396 -0.06551236 0.005564817 0.0034861322 -0.00776304
0.031852208 -0.03025817 -0.0034292918 -0.014764576 -0.048487466 0.026932865 -0.039486673 -0.012708229
0.027605355 0.0630566 0.028389001 -0.032083735 -0.024275625 0.008886113 -0.016756102 -0.033774287
-0.12658718 -0.015117338 -0.03470622 -0.008463136 -0.10351525 0.06477934 -0.061013926 -0.036131248
0.026309352 -0.047108665 -0.11591942 -0.03614503 -0.027977811 -0.09036147 0.07170128 -0.027584016
-0.042209607 0.08864076 0.0064197243 0.06821534 -0.035421606 -0.035038162 0.03189922 -0.075254664
0.08466116 -0.080619805 -0.063541524 0.031466164 -0.013375795 -0.03257786 -0.060601115 -0.004832753
-0.019401317 0.0055350345 -0.064252384 0.023542952 0.022126699 -0.011245073 -0.06766 -0.09516949
-0.016047053 0.0037082012 0.06374567 0.007885362 -0.06131876 0.08132992 -0.02659184 0.017993392
-0.12905584 -0.035095643 -0.044754963 -0.07220457 0.043131333 -0.008982153 0.047194235 -0.0118546365
0.020874653 -0.09754379 0.026169386 -0.014087915 0.065248385 -0.0058533493 -0.01653135 0.0074247234
0.01318468 -0.0075287498 -0.051411726 -0.020425774 -0.033030774 -0.06823127 0.013079844 0.053382378
-0.035086427 -0.028291337 -0.06774426 0.01183579 0.039250873 -0.09751085 -0.0073444345 0.0033265564
